…
abled for this repo, but the 'hf_xet' package is not installed. Falling back to regular HTTP download. For better performance, install the package with: `pip install huggingface_hub[hf_xet]` or `pip install hf_xet`\n"]},{"output_type":"display_data","data":{"text/plain":["model.safetensors:   0%|          | 0.00/440M [00:00<?, ?B/s]"],"application/vnd.jupyter.widget-view+json":{"version_major":2,"version_minor":0,"model_id":"d4039fa01f20408a8236281b59467a25"}},"metadata":{}},{"output_type":"stream","name":"stdout","text":["BertModel(\n","  (embeddings): BertEmbeddings(\n","    (word_embeddings): Embedding(30522, 768, padding_idx=0)\n","    (position_embeddings): Embedding(512, 768)\n","    (token_type_embeddings): Embedding(2, 768)\n","    (LayerNorm): LayerNorm((768,), eps=1e-12, elementwise_affine=True)\n","    (dropout): Dropout(p=0.1, inplace=False)\n","  )\n","  (encoder): BertEncoder(\n","    (layer): ModuleList(\n","      (0-11): 12 x BertLayer(\n","        (attention): BertAttention(\n","          (self): BertSdpaSelfAttention(\n","            (query): Linear(in_features=768, out_features=768, bias=True)\n","            (key): Linear(in_features=768, out_features=768, bias=True)\n","            (value): Linear(in_features=768, out_features=768, bias=True)\n","            (dropout): Dropout(p=0.1, inplace=False)\n","          )\n","          (output): BertSelfOutput(\n","            (dense): Linear(in_features=768, out_features=768, bias=True)\n","            (LayerNorm): LayerNorm((768,), eps=1e-12, elementwise_affine=True)\n","            (dropout): Dropout(p=0.1, inplace=False)\n","          )\n","        )\n","        (intermediate): BertIntermediate(\n","          (dense): Linear(in_features=768, out_features=3072, bias=True)\n","          (intermediate_act_fn): GELUActivation()\n","        )\n","        (output): BertOutput(\n","          (dense): Linear(in_features=3072, out_features=768, bias=True)\n","          (LayerNorm): LayerNorm((768,), eps=1e-12, elementwise_affine=True)\n","          (dropout): Dropout(p=0.1, inplace=False)\n","        )\n","      )\n","    )\n","  )\n","  (pooler): BertPooler(\n","    (dense): Linear(in_features=768, out_features=768, bias=True)\n","    (activation): Tanh()\n","  )\n",")\n"]}]},{"cell_type":"markdown","source":["## Bert的參數總量為109,482,240，約一億個參數"],"metadata":{"id":"UqwkzYrUFFEe"}},{"cell_type":"code","source":["print(model.num_parameters())"],"metadata":{"id":"Je0PkkY26tuF","colab":{"base_uri":"https://localhost:8080/"},"executionInfo":{"status":"ok","timestamp":1744162100844,"u
…
